…
        "output_dim": 1,
        "input_embedding_dim": 24,
        "tod_embedding_dim": 24,
        "dow_embedding_dim": 24,
        "spatial_embedding_dim": 0,
        "adaptive_embedding_dim": 80,
        "feed_forward_dim": 256,
        "num_heads": 4,
        "num_layers": 3,
        "dropout": 0.1
    }
}
==========================================================================================
Layer (type:depth-idx)                   Output Shape              Param #
==========================================================================================
DSTCGCN                                  [16, 12, 170, 1]          165,020
├─Linear: 1-1                            [16, 12, 170, 24]         96
├─Embedding: 1-2                         [16, 12, 170, 24]         6,912
├─Embedding: 1-3                         [16, 12, 170, 24]         168
├─ModuleList: 1-4                        --                        --
│    └─SelfAttentionLayer: 2-1           [16, 12, 170, 152]        --
│    │    └─AttentionLayer: 3-1          [16, 170, 12, 152]        93,024
│    │    └─Dropout: 3-2                 [16, 170, 12, 152]        --
│    │    └─LayerNorm: 3-3               [16, 170, 12, 152]        304
│    │    └─Sequential: 3-4              [16, 170, 12, 152]        78,232
│    │    └─Dropout: 3-5                 [16, 170, 12, 152]        --
│    │    └─LayerNorm: 3-6               [16, 170, 12, 152]        304
│    └─SelfAttentionLayer: 2-2           [16, 12, 170, 152]        --
│    │    └─AttentionLayer: 3-7          [16, 170, 12, 152]        93,024
│    │    └─Dropout: 3-8                 [16, 170, 12, 152]        --
│    │    └─LayerNorm: 3-9               [16, 170, 12, 152]        304
│    │    └─Sequential: 3-10             [16, 170, 12, 152]        78,232
│    │    └─Dropout: 3-11                [16, 170, 12, 152]        --
│    │    └─LayerNorm: 3-12              [16, 170, 12, 152]        304
│    └─SelfAttentionLayer: 2-3           [16, 12, 170, 152]        --
│    │    └─AttentionLayer: 3-13         [16, 170, 12, 152]        93,024
│    │    └─Dropout: 3-14                [16, 170, 12, 152]        --
│    │    └─LayerNorm: 3-15              [16, 170, 12, 152]        304
│    │    └─Sequential: 3-16             [16, 170, 12, 152]        78,232
│    │    └─Dropout: 3-17                [16, 170, 12, 152]        --
│    │    └─LayerNorm: 3-18              [16, 170, 12, 152]        304
├─ModuleList: 1-5                        --                        --
│    └─SelfAttentionLayer: 2-4           [16, 12, 170, 152]        --
│    │    └─AttentionLayer: 3-19         [16, 12, 170, 152]        93,024
│    │    └─Dropout: 3-20                [16, 12, 170, 152]        --
│    │    └─LayerNorm: 3-21              [16, 12, 170, 152]        304
│    │    └─Sequential: 3-22             [16, 12, 170, 152]        78,232
│    │    └─Dropout: 3-23                [16, 12, 170, 152]        --
│    │    └─LayerNorm: 3-24              [16, 12, 170, 152]        304
│    └─SelfAttentionLayer: 2-5           [16, 12, 170, 152]        --
│    │    └─AttentionLayer: 3-25         [16, 12, 170, 152]        93,024
│    │    └─Dropout: 3-26                [16, 12, 170, 152]        --
│    │    └─LayerNorm: 3-27              [16, 12, 170, 152]        304
│    │    └─Sequential: 3-28             [16, 12, 170, 152]        78,232
│    │    └─Dropout: 3-29                [16, 12, 170, 152]        --
│    │    └─LayerNorm: 3-30              [16, 12, 170, 152]        304
│    └─SelfAttentionLayer: 2-6           [16, 12, 170, 152]        --
│    │    └─AttentionLayer: 3-31         [16, 12, 170, 152]        93,024
│    │    └─Dropout: 3-32                [16, 12, 170, 152]        --
│    │    └─LayerNorm: 3-33              [16, 12, 170, 152]        304
│    │    └─Sequential: 3-34             [16, 12, 170, 152]        78,232
│    │    └─Dropout: 3-35                [16, 12, 170, 152]        --
│    │    └─LayerNorm: 3-36              [16, 12, 170, 152]        304
├─ModuleList: 1-6                        --                        --
│    └─FFTSelector: 2-7                  [12, 3]                   --
│    │    └─Linear: 3-37                 [16, 12, 256]             6,615,296
│    │    └─Linear: 3-38                 [16, 12, 256]             6,615,296
├─ModuleList: 1-7                        --                        --
│    └─CGCN: 2-8                         [16, 12, 170, 152]        344
│    │    └─LayerNorm: 3-39              [170, 10]                 20
│    │    └─Dropout: 3-40                [170, 10]                 --
│    │    └─GCN: 3-41                    [16, 510, 152]            463,904
│    │    └─LayerNorm: 3-42              [170, 10]                 (recursive)
│    │    └─Dropout: 3-43                [170, 10]                 --
│    │    └─GCN: 3-44                    [16, 510, 152]            (recursive)
│    │    └─LayerNorm: 3-45              [170, 10]                 (recursive)
│    │    └─Dropout: 3-46                [170, 10]                 --
│    │    └─GCN: 3-47                    [16, 510, 152]            (recursive)
│    │    └─LayerNorm: 3-48              [170, 10]                 (recursive)
│    │    └─Dropout: 3-49                [170, 10]                 --
│    │    └─GCN: 3-50                    [16, 510, 152]            (recursive)
│    │    └─LayerNorm: 3-51              [170, 10]                 (recursive)
│    │    └─Dropout: 3-52                [170, 10]                 --
│    │    └─GCN: 3-53                    [16, 510, 152]            (recursive)
│    │    └─LayerNorm: 3-54              [170, 10]                 (recursive)
│    │    └─Dropout: 3-55                [170, 10]                 --
│    │    └─GCN: 3-56                    [16, 510, 152]            (recursive)
│    │    └─LayerNorm: 3-57              [170, 10]                 (recursive)
│    │    └─Dropout: 3-58                [170, 10]                 --
│    │    └─GCN: 3-59                    [16, 510, 152]            (recursive)
│    │    └─LayerNorm: 3-60              [170, 10]                 (recursive)
│    │    └─Dropout: 3-61                [170, 10]                 --
│    │    └─GCN: 3-62                    [16, 510, 152]            (recursive)
│    │    └─LayerNorm: 3-63              [170, 10]                 (recursive)
│    │    └─Dropout: 3-64                [170, 10]                 --
│    │    └─GCN: 3-65                    [16, 510, 152]            (recursive)
│    │    └─LayerNorm: 3-66              [170, 10]                 (recursive)
│    │    └─Dropout: 3-67                [170, 10]                 --
│    │    └─GCN: 3-68                    [16, 510, 152]            (recursive)
│    │    └─LayerNorm: 3-69              [170, 10]                 (recursive)
│    │    └─Dropout: 3-70                [170, 10]                 --
│    │    └─GCN: 3-71                    [16, 510, 152]            (recursive)
│    │    └─LayerNorm: 3-72              [170, 10]                 (recursive)
│    │    └─Dropout: 3-73                [170, 10]                 --
│    │    └─GCN: 3-74                    [16, 510, 152]            (recursive)
│    │    └─LayerNorm: 3-75              [16, 12, 170, 152]        304
├─Linear: 1-8                            [16, 170, 12]             21,900
==========================================================================================
Total params: 14,920,444
Trainable params: 14,920,444
Non-trainable params: 0
Total mult-adds (M): 228.76
==========================================================================================
Input size (MB): 0.39
Forward/backward pass size (MB): 2246.84
Params size (MB): 57.17
Estimated Total Size (MB): 2304.40
…
